mnist_model.pth (torch, 409136 bytes, 4 tensors)

fc1.weight f4 [128, 784]
0	0xbabccf3c	-0.0014405022
1	0x3c3e019e	0.011597065
2	0x3cb9aea0	0.022666276
3	0x3cc1a376	0.023637515
4	0x3d058c4a	0.032604493
5	0x3ba3a835	0.004994417
6	0x3c7fb1c6	0.015606349
7	0x3b99740d	0.004683024
8	0x3d0b46bf	0.034003016
9	0xbbe44263	-0.0069659217
10	0x3d0d4a67	0.034494784
11	0x3d33ea21	0.043924455
12	0xbcb624eb	-0.0222344
13	0x3bb963a9	0.0056576324
14	0xbcb2e62c	-0.02183827
15	0x3ceaa66a	0.028643806
16	0x392398e6	0.0001560185
17	0x3bf5195f	0.007479831
18	0x3c87e667	0.016589357
19	0x3bb3e9d9	0.0054905233
20	0xbacf19f8	-0.0015800586
21	0x3d175dff	0.036954876
22	0x3d1994eb	0.037495535
23	0x3d263bf1	0.04058451
24	0x3d2aa9e7	0.041665938
25	0x3d1c28fd	0.038125027
26	0x3d3683a1	0.044559125
27	0x3ba42019	0.005008709
28	0xbbc96e27	-0.0061471644
29	0xbc5d5cd0	-0.013510898
30	0xbc6f9ac6	-0.014624303
31	0x3c413f12	0.011794822
32	0xbc16489e	-0.009172587
33	0x3d3261ef	0.043550428
34	0xbab810c0	-0.0014043078
35	0x3cdef27c	0.027215235
36	0x3ac01112	0.0014653525
37	0xbcda95f8	-0.026682839
38	0x3b59471a	0.0033153952
39	0xbc5c4d21	-0.013446123
40	0xbd24386c	-0.04009287
41	0xbccf4305	-0.025300512
42	0x3d33dd3f	0.04391217
43	0xbcca0836	-0.024662118
44	0xbce072f0	-0.027398556
45	0xbca70eae	-0.020392742
46	0x3acba803	0.0015537742
47	0xbc47aec7	-0.012187666
48	0xbd1079e9	-0.035272513
49	0xb945164e	-0.00018795693
50	0x3d068745	0.032843847
51	0x3b6109cf	0.0034338122
52	0xbc9ac4fb	-0.018892756
53	0xbbed9ece	-0.007251597
54	0xbc5de2c2	-0.013542833
55	0xbcbc0b7c	-0.022954695
56	0x3ca50d36	0.020147901
57	0x3b82e3e9	0.003994454
58	0x398c92dd	0.00026812303
59	0xbca0a8a5	-0.019611666
60	0x3b57a010	0.0032901801
61	0xbcbf2787	-0.023334278
62	0xbc4916bb	-0.012273486
63	0xbd61fb20	-0.055171132
64	0xbc25aa71	-0.010111437
65	0xbd8270cb	-0.0636917
66	0xbd866aad	-0.065633155
67	0xbda4591b	-0.08024808
68	0xbd99be70	-0.07507026
69	0xbdc5faf6	-0.096670076
70	0xbda90850	-0.082535386
71	0xbd67aa05	-0.056558628
72	0xbcacbac8	-0.021085158
73	0xbd4db841	-0.050224546
74	0xbdcc1042	-0.099640384
75	0xbd8100e7	-0.06299
76	0xbd6a9cf9	-0.057278607
77	0xbd93895e	-0.07203935
78	0xbd005924	-0.03133501
79	0xbbb16ac1	-0.0054143374
80	0x3d0dfc76	0.034664594
81	0x3cb4d7ad	0.022075498
82	0x3d0a940f	0.033832606
83	0x3c96ca2c	0.01840695
84	0x3c7034c8	0.0146610215
85	0xbc517b14	-0.012785692
86	0x3cbebabf	0.023282407
87	0x3d1c02a1	0.038088445
88	0xb8af7dee	-8.3681065e-05
89	0x3d0ab2bc	0.03386186
90	0xbced5072	-0.028969023
91	0xbddfcdca	-0.10927923
92	0xbe0e7c09	-0.13914503
93	0xbe5346d4	-0.20632488
94	0xbe465cab	-0.19371288
95	0xbe1c322d	-0.15253516
96	0xbe2f146b	-0.17097633
97	0xbe4c2a7e	-0.19938084
98	0xbe00c3cb	-0.12574689
99	0xbdd8ed60	-0.10592151
100	0xbdc5e5e5	-0.096629895
101	0xbd02d19e	-0.031938188
102	0xbcfface1	-0.031210365
103	0xbcb9d54f	-0.022684721
104	0xbd2ebe17	-0.042661753
105	0xbcb51447	-0.022104396
106	0x3c67fb9e	0.014159111
107	0xbd5b7c89	-0.053585563
108	0xbd046e75	-0.032331903
109	0xbc8881f6	-0.016663533
110	0x3bca7bbb	0.0061793006
111	0x3bd80f9f	0.006593659
112	0x3d1c7f6b	0.038207453
113	0x3d291e7f	0.04128885
114	0xbb4451b3	-0.0029955923
115	0x3c543338	0.012951665
116	0x3c2aad28	0.01041726
117	0xbd964e2a	-0.07339127
118	0xbe0dbaca	-0.13840786
119	0xbe390a06	-0.1807023
120	0xbe2ce96a	-0.16885915
121	0xbe66bbfc	-0.22532648
122	0xbe8a300a	-0.26989776
123	0xbe274cd3	-0.163379
124	0xbe70f76f	-0.23531888
125	0xbe7133c9	-0.2355491
126	0xbe665f14	-0.22497207
127	0xbdfceda1	-0.123500116
128	0xbda01cbc	-0.07817981
129	0xbdb85fa7	-0.09002619
130	0xbddac8f2	-0.106828585
131	0xbe1417db	-0.14462225
132	0xbe06c0cd	-0.13159485
133	0xbd415941	-0.04720426
134	0xbd0c2352	-0.03421337
135	0xbba2124f	-0.00494603
136	0x3ce09101	0.027412893
137	0x3cf42cab	0.029806456
138	0x3d3f4d9f	0.046704885
139	0x3cb6569b	0.022258094
140	0x3cec6ce3	0.028860515
141	0xbc3de3ba	-0.011589939
142	0xbc5081b9	-0.012726241
143	0x3cd07505	0.025446424
144	0xbc8f835b	-0.01751869
145	0xbde45c38	-0.11150402
146	0xbe1e74af	-0.15474199
147	0xbe069edf	-0.13146542
148	0xbdec8943	-0.11549618
149	0xbe0ae38b	-0.13563363
150	0xbe2aac17	-0.1666721
151	0xbe4b3d81	-0.1984768
152	0xbe49aede	-0.19695613
153	0xbe53e84b	-0.20694081
154	0xbe09074b	-0.13381688
155	0xbd3b5a0b	-0.04574017
156	0xbda309fd	-0.079608895
157	0xbdbfd986	-0.09367661
158	0xbe15194c	-0.14560431
159	0xbe28e8f8	-0.1649512
160	0xbdb7f83e	-0.08982895
161	0xbd3a42e7	-0.04547396
162	0x3b771ef9	0.003770767
163	0x3d16159e	0.03664171
164	0xbd14cc97	-0.036327925
165	0x3b34a574	0.0027564438
166	0x3a07e903	0.0005184563
167	0x3900fcdf	0.00012301233
168	0xbcaffe62	-0.021483604
169	0x3d35e3b7	0.04440662
170	0xbc49d938	-0.012319855
171	0x3d743612	0.059621878
172	0x3d26877e	0.04065656
173	0xbc8d07cf	-0.017215637
174	0xbdb5a6b8	-0.0886969
175	0xbda9e761	-0.08296085
176	0xbd1b576d	-0.037925173
177	0xbd79aa74	-0.060953572
178	0xbdf3c53b	-0.11902853
179	0xbe3a01a5	-0.1816469
180	0xbe034e4c	-0.12822837
181	0xbdf46f3e	-0.1193528
182	0xbd6b6d02	-0.057477005
183	0xbdb08b8d	-0.08620367
184	0xbe26a0d2	-0.16272286
185	0xbd8b3419	-0.06797046
186	0xbe10750d	-0.14107151
187	0xbd3100fb	-0.043213826
188	0xbd9a6d71	-0.075404055
189	0x3c135bd3	0.008994061
190	0x3d41f2de	0.047350757
191	0x3b92e5b7	0.0044829505
192	0x3c80aa36	0.015706163
193	0x3d0fa427	0.035068657
194	0x3d9a17f2	0.075240985
195	0xbb205e1b	-0.0024470154
196	0x3c919fc7	0.017776383
197	0xbc528184	-0.012848262
198	0x3a2bbfc8	0.000655171
199	0x3d9d5ad8	0.07683343
200	0x3b1b3cd1	0.0023687372
201	0x3d5090e9	0.050919447
202	0x3d3cdd22	0.046109326
203	0x3cac01c7	0.020996941
204	0x3d15ed9d	0.03660356
205	0x3ccc7e4e	0.02496257
206	0xbc808f63	-0.015693372
207	0xbd92fda7	-0.071772866
208	0xbd0e01e5	-0.034669776
209	0xbc3191d8	-0.0108379945
210	0xbd7ab177	-0.0612044
211	0xbde5276b	-0.11189159
212	0xbdab9247	-0.083775096
213	0xbd7f5de8	-0.062345415
214	0xbdba42b1	-0.090947516
215	0xbd793696	-0.060843073
216	0x3d60e15f	0.05490243
217	0x3d31187d	0.043236244
218	0x3dc2615b	0.09491225
219	0xbbdd8fb0	-0.0067615137
220	0x3d9b4571	0.07581604
221	0x3d552634	0.052038386
222	0x3d9eef43	0.07760479
223	0x3c053772	0.008130895
224	0xbbfe4d2f	-0.007760666
225	0x3d3bb842	0.04583002
226	0xbc30997e	-0.010778783
227	0x3c37229d	0.011177686
228	0xbc436514	-0.011925954
229	0x3d21005c	0.039306983
230	0x3d1248bd	0.0357139
231	0x3cea404a	0.028595109
232	0xbc3dd0eb	-0.011585454
233	0x3b839845	0.0040159547
234	0x3dbb46ce	0.09144364
235	0x3dd11f98	0.10211104
236	0x3d916706	0.07099728
237	0xbd3a88ad	-0.0455405
238	0x3bea29f1	0.007146113
239	0xbd09ee73	-0.03367467
240	0xbd4c691a	-0.04990492
241	0xba227145	-0.0006196688
242	0xbc902688	-0.017596498
243	0x3c724042	0.014785828
244	0x3d3b491f	0.04572403
245	0x3ce78064	0.028259464
246	0x3d82ad09	0.0638066
247	0x3d581e7f	0.05276346
248	0x3e0253d9	0.12727298
249	0x3d59d973	0.05318589
250	0x3c6cff8f	0.014465227
251	0x3d136c61	0.03599203
252	0xbc999e47	-0.01875223
253	0xbc94aced	-0.018148864
254	0x3cb609e0	0.022221506
255	0x3d38eb1c	0.045146093

fc1.bias f4 [128]
0	0x3c8f2437	0.017473323
1	0xbbb8dd66	-0.005641627
2	0x3cf37787	0.029720081
3	0xbd3e0a89	-0.046396766
4	0xbd415d5a	-0.047208168
5	0xbc93f267	-0.018059922
6	0xbc7b1a30	-0.015326068
7	0x3c01bb6d	0.007918221
8	0xbc7ebf82	-0.015548589
9	0xbcf45c7c	-0.029829256
10	0xbca7b6fa	-0.020472992
11	0xbbf5639a	-0.00748868
12	0xbc93c4cd	-0.018038178
13	0xbd1a44d7	-0.037663307
14	0xbd2b59cb	-0.04183368
15	0xbc20079b	-0.009767438
16	0xbc00da94	-0.007864613
17	0x3bf3a5e9	0.0074355495
18	0x3d123793	0.03569753
19	0xbc6a32dd	-0.014294353
20	0xbc5a6839	-0.013330513
21	0x3c6b5c2b	0.014365236
22	0xbcee9d07	-0.02912761
23	0x3cbb8a7b	0.022893181
24	0xbbf6c9f5	-0.0075313994
25	0x3c234c89	0.009966978
26	0xbbac8c5e	-0.0052657565
27	0x3b7e296e	0.0038782018
28	0x3cd91fef	0.026504485
29	0xbc9f8c21	-0.019475998
30	0xbd0b34bf	-0.03398585
31	0xbce6a186	-0.028153192
32	0xbcf8a57a	-0.030352343
33	0xbc1a1998	-0.009405516
34	0xbb2c6015	-0.0026302387
35	0x3bb56e7e	0.0055368533
36	0x3cd9eeeb	0.026603183
37	0x3b4803eb	0.0030519913
38	0xbbf893dd	-0.007585986
39	0xbcb47f47	-0.022033347
40	0x3d462feb	0.048385542
41	0x3bb21dee	0.005435697
42	0x3ca3d86d	0.02000066
43	0xbd005d5f	-0.031339046
44	0x3d606a6a	0.054788984
45	0xbca46fce	-0.020072844
46	0x3b2536ef	0.0025209745
47	0xbbb480ac	-0.005508503
48	0x3c352f25	0.011058603
49	0xbd5eb9f8	-0.054376572
50	0xbc668b3a	-0.01407128
51	0xbd2e4f5d	-0.042556155
52	0x3d267bbe	0.040645353
53	0xbd111866	-0.03542366
54	0xba0711fb	-0.00051525206
55	0x3ac6d50c	0.0015169694
56	0xbd309542	-0.043111093
57	0x3cc638dc	0.024197035
58	0xbc5b870b	-0.013398896
59	0x3c975d4d	0.018477106
60	0x3cc86584	0.024462469
61	0x3ceb68f7	0.028736575
62	0x3c6577bd	0.014005599
63	0xbd128f70	-0.035781324
64	0xbb848f10	-0.0040453747
65	0x3c4f680a	0.012659082
66	0x3cce8d43	0.025213843
67	0xbcc39b5f	-0.023877798
68	0x3c9f95b4	0.019480564
69	0xbd18e8f9	-0.037331555
70	0xbcfc7702	-0.030818466
71	0xbcadfefa	-0.021239746
72	0x3c37a115	0.011207839
73	0xbd032502	-0.032017715
74	0xbcd285c3	-0.025698548
75	0xbce710ba	-0.028206218
76	0xbc3ccb3a	-0.011523062
77	0xbd064963	-0.03278483
78	0xbd14fc92	-0.036373682
79	0xbd365c1d	-0.04452144
80	0x3c822763	0.015887922
81	0xbc2c1ae4	-0.010504458
82	0xbc768d71	-0.015048371
83	0xbca11075	-0.019661168
84	0xbc4b195a	-0.012396181
85	0xbd0cfe52	-0.034422226
86	0xbcb4bac4	-0.022061713
87	0xbcdd8ee7	-0.02704568
88	0xbd669b56	-0.056300484
89	0x3b91a596	0.004444788
90	0xbbc46b7a	-0.0059942575
91	0xbc1071cf	-0.008816197
92	0xbcd737fb	-0.02627181
93	0xbd0a0c52	-0.033703156
94	0x3b28981a	0.0025725425
95	0xbc0e8bf2	-0.008700358
96	0x3d08418f	0.033265647
97	0x3d2688d5	0.040657837
98	0xbd1d58f5	-0.038414914
99	0xbc3ebe9b	-0.011642124
100	0xba36b592	-0.0006969805
101	0xbb6b3daa	-0.003589491
102	0xbc0e7958	-0.008695923
103	0xbc57e2ef	-0.013176664
104	0xbc8d31d8	-0.017235681
105	0x3c6eb8d5	0.014570435
106	0xbd47d758	-0.048789352
107	0x3d3b9d7d	0.04580449
108	0x3c858689	0.016299503
109	0xbcedfdcb	-0.029051682
110	0x3c47f7c7	0.012205071
111	0xbc90fbe6	-0.01769824
112	0xbd29b996	-0.041436754
113	0xbb529cfa	-0.0032137022
114	0xbcc82fb3	-0.024436807
115	0x3ca90139	0.020630466
116	0x3cdce842	0.026966218
117	0xbc6972a1	-0.014248521
118	0x3d1e23e2	0.03860844
119	0xbcddb033	-0.027061557
120	0x3d347885	0.04406025
121	0x3c7a5531	0.0152791
122	0x3cebe4b8	0.028795585
123	0xbcd92c3b	-0.026510349
124	0x3cd40a8e	0.02588394
125	0xbbe95366	-0.0071205376
126	0x3ca0a504	0.019609936
127	0x3d0a5b3f	0.033778425

fc2.weight f4 [10, 128]
0	0xbd3345a7	-0.043767598
1	0x3de30562	0.11085011
2	0xbe78d0cb	-0.24298398
3	0xbe1c41fb	-0.15259545
4	0xbec8f72c	-0.39251077
5	0xbcf63951	-0.030056627
6	0x3d9c4e0c	0.07632074
7	0xbbeb8f5a	-0.0071887197
8	0x3dcd6067	0.10028153
9	0x3dbad39d	0.09122393
10	0x3dbdb9cc	0.092639536
11	0xbe8bd9fc	-0.27314746
12	0x3e062470	0.13099837
13	0x3d9796c7	0.07401805
14	0x3d4bacaa	0.049725212
15	0x3d873c7b	0.066033326
16	0xbe30e8ca	-0.17276302
17	0x3e0e5453	0.13899355
18	0x3cd10f31	0.02551994
19	0x3dc02d06	0.093835875
20	0xbd858c4e	-0.065209016
21	0x3c1e0f5c	0.009647217
22	0xbe7989f8	-0.24369037
23	0xbe2fce66	-0.17168579
24	0x3d508493	0.050907683
25	0x3c55ea23	0.013056311
26	0x3cdfbc5a	0.027311493
27	0xbd92bf9e	-0.07165454
28	0x3d6ae9c5	0.057351846
29	0xbe9c4572	-0.30521733
30	0xbe7101f7	-0.23535906
31	0xbe9f21b5	-0.31080404
32	0x3cb2e7c2	0.021839026
33	0x3b13ceb6	0.002255363
34	0x3d668b59	0.056285236
35	0xbdfe7003	-0.12423708
36	0x3d1e296a	0.038613714
37	0x3ceaa333	0.028642273
38	0x3d2da69d	0.042395223
39	0xbd8253cc	-0.06363639
40	0xbc30ab23	-0.01078299
41	0xbe6006d2	-0.21877602
42	0x3de464bf	0.11152028
43	0x3e1d0ae3	0.15336184
44	0x3e22d04a	0.15899768
45	0xbe944662	-0.28959948
46	0x3c9aa7fc	0.01887893
47	0x3dba7537	0.09104388
48	0xbead0d92	-0.33799416
49	0x3cdfd896	0.027324956
50	0xbe07ed2e	-0.1327407
51	0xbd5d8037	-0.054077353
52	0xbe02b229	-0.12763275
53	0xbd3c19c4	-0.04592301
54	0x3b89c349	0.004204188
55	0xbdf90b68	-0.12160379
56	0xbe598821	-0.21243335
57	0xbebb3615	-0.365647
58	0x3e22d9d6	0.1590341
59	0x3d82c120	0.06384492
60	0x3cdbedd9	0.026846813
61	0x3daf2c29	0.08553345
62	0xbd5b2cbb	-0.053509455
63	0xbd993179	-0.07480139
64	0xbd8f1036	-0.06985514
65	0x3d825236	0.06363337
66	0xbe4e7f85	-0.20165832
67	0x3d8b0632	0.06788291
68	0x3dbd9001	0.09255982
69	0x3d905e21	0.07049204
70	0xbe331ee8	-0.17492259
71	0xbce308a7	-0.027714087
72	0xbdfc3654	-0.1231505
73	0x3dd47d1e	0.10375427
74	0xbeb22fd5	-0.34802118
75	0x3dc4fd0b	0.096185766
76	0xbd36a0bb	-0.04458688
77	0x3e0e7fc3	0.13915925
78	0x3daa82f8	0.083257616
79	0xbcae3d04	-0.021269329
80	0x3d903066	0.07040481
81	0x3d93d30f	0.072179906
82	0x3e1d5192	0.15363148
83	0xbbaf1e72	-0.0053442055
84	0x3d8eef05	0.06979183
85	0xbd5e37c2	-0.054252394
86	0x3d301058	0.042984337
87	0xbd3f3da5	-0.04668965
88	0x3db7a97b	0.08967873
89	0x3d8ba058	0.068176925
90	0x3ce8f4e6	0.02843709
91	0x3da17922	0.078844324
92	0xbb0912d9	-0.0020915775
93	0x3d684b79	0.0567126
94	0x3cdbde3f	0.026839374
95	0xbe1fba4b	-0.15598409
96	0x3e7ef1a2	0.24896863
97	0x3dd9ac82	0.106286064
98	0xbd2566ea	-0.04038135
99	0xbbdb9b29	-0.006701846
100	0xbe5bb093	-0.21454076
101	0x3d5be30a	0.05368332
102	0xbebcc6da	-0.36870462
103	0xbd8633d5	-0.06552855
104	0x3c40e1f0	0.011772618
105	0x3d09ad33	0.03361244
106	0x3dadff88	0.08496004
107	0x3dc04b17	0.09389322
108	0xbd1f18c5	-0.03884198
109	0xbd0c3639	-0.0342314
110	0xbdca703d	-0.09884689
111	0x3d56e984	0.05246879
112	0x3d77073c	0.060309634
113	0xbe092877	-0.13394342
114	0xbde63229	-0.11240036
115	0xbde69598	-0.112590015
116	0x3e24cb64	0.16093212
117	0xbdd824b7	-0.10553878
118	0x3c5a9696	0.013341567
119	0xbe483584	-0.19551665
120	0xbe3ec835	-0.1863106
121	0xbd12d8cc	-0.035851285
122	0x3cc00f79	0.023444878
123	0xbc7fa87e	-0.0156041365
124	0x3d289de7	0.041166212
125	0xbd0eeb09	-0.034892116
126	0xbc2fef06	-0.01073814
127	0xbe14c99d	-0.14530034
128	0xbe61ad27	-0.22038709
129	0xbe1aa76c	-0.15102929
130	0xbe03523a	-0.12824336
131	0x3e22f5b4	0.15914041
132	0x3ddc8ea0	0.10769391
133	0xbde31e88	-0.11089808
134	0xbdd3bee3	-0.10339143
135	0x3c93f16b	0.018059453
136	0xbe0f3b34	-0.13987428
137	0x3e2ec413	0.17066984
138	0x3c8b171e	0.016978797
139	0xbca5abdf	-0.020223556
140	0xbea1961c	-0.31559837
141	0x3d8bf2d3	0.068334244
142	0x3cee5e3a	0.029097665
143	0x3d27db73	0.040980767
144	0xbe1abcdc	-0.15111107
145	0xbce229ee	-0.027607884
146	0xbbfcc9ad	-0.0077144713
147	0xbe0a57d9	-0.13510074
148	0x3dbed3e6	0.0931776
149	0xbcae60d6	-0.02128641
150	0x3d829e42	0.063778415
151	0xbc08e38d	-0.008355034
152	0x3d1bec8c	0.038067386
153	0xbdd1681c	-0.102249354
154	0xbeb6a6ca	-0.35674125
155	0x3c6a4312	0.014298217
156	0xbd103913	-0.03521068
157	0x3ee770fa	0.45203382
158	0x3e6d7fff	0.23193358
159	0x3b5301be	0.0032197083
160	0xbe6db628	-0.23214018
161	0x3c31ae73	0.010844815
162	0xbe28caf4	-0.1648367
163	0xbe931a33	-0.28730926
164	0x3e3806c5	0.17971332
165	0x3dc9ff6e	0.098631725
166	0x3d4139a6	0.04717412
167	0xbe0e2559	-0.13881435
168	0xbd97e979	-0.07417578
169	0x3d87115c	0.06595108
170	0xbddd86c2	-0.10816719
171	0xbcedf6fc	-0.029048435
172	0x3e019cba	0.12657443
173	0x3d91a4d7	0.07111519
174	0xbdac23d8	-0.08405274
175	0x3da92d73	0.08260622
176	0x3e039d33	0.12852935
177	0x3da04e11	0.0782739
178	0xbca5abf3	-0.020223593
179	0x3e4bdd16	0.19908556
180	0xbd9a0a83	-0.07521536
181	0x3dcd631b	0.100286685
182	0xbe7bd082	-0.24591258
183	0x3e36201d	0.17785688
184	0xbd3c7542	-0.046010263
185	0x3d96855e	0.073496565
186	0x3e34990e	0.1763651
187	0xbe7516a0	-0.23934412
188	0x3e3d31e1	0.18476059
189	0xbe7aa4aa	-0.24476877
190	0x3d32a724	0.04361643
191	0x3d66ff47	0.056395795
192	0x3d1b6b96	0.0379444
193	0x3d0e1abe	0.034693472
194	0xbe2d9a45	-0.1695338
195	0xbe5d8932	-0.21634367
196	0xbd110d6d	-0.035413194
197	0xbd5a20ff	-0.053254124
198	0xbe24efd3	-0.1610711
199	0xbd6680ce	-0.05627518
200	0x3d4d3dac	0.050107643
201	0xbe5d54cc	-0.21614379
202	0x3c836278	0.016038164
203	0xbd1a62d7	-0.037691917
204	0xbd3e29b6	-0.046426497
205	0xbcbd155e	-0.023081478
206	0x3dc3e74d	0.095656015
207	0xbd3a0177	-0.045411553
208	0x3d68ce64	0.056837454
209	0x3d96f4fc	0.07370946
210	0xbe361b3b	-0.17783825
211	0xbe066da0	-0.13127756
212	0xbe38ba2a	-0.18039766
213	0x3cde825c	0.02716177
214	0x3eb8f018	0.36120677
215	0xbb8ce42a	-0.00429966
216	0x3d4575f8	0.048208207
217	0xbec0eccb	-0.3768066
218	0xbda5addf	-0.08089804
219	0x3cdf4e7a	0.0272591
220	0x3d29526e	0.041338377
221	0xbdfe0ccc	-0.124047846
222	0xbbbaffa8	-0.005706746
223	0xbd0dbbf7	-0.034603085
224	0xbeaab103	-0.33338174
225	0x3d8c7ade	0.068593726
226	0xbcf0da94	-0.029401101
227	0x3d846561	0.06464649
228	0x3c4951c8	0.012287565
229	0xbe4f88bf	-0.20267008
230	0xbd602165	-0.054719348
231	0xbe2d0507	-0.16896449
232	0x3c7b472e	0.015336795
233	0x3df54b6a	0.11977275
234	0xbd80aeb4	-0.06283322
235	0xbd9f6865	-0.077835836
236	0x3d6f53b5	0.05842944
237	0xbd656eaa	-0.05601374
238	0x3d9a3b1d	0.07530806
239	0xbd61af24	-0.055098668
240	0x3dbd8f72	0.09255876
241	0xbdd00e85	-0.101590194
242	0x3e11068e	0.14162657
243	0xbc8150fb	-0.015785685
244	0xbec671a9	-0.3875859
245	0xbe825fd2	-0.2546373
246	0x3cc8e943	0.02452529
247	0x3e461af1	0.19346215
248	0xbb9d169e	-0.004793956
249	0x3dc99936	0.09843676
250	0x3e19492e	0.14969322
251	0xbd9a2ead	-0.07528434
252	0xbdbb9292	-0.091588154
253	0xbe3118e2	-0.17294648
254	0xbe11bd16	-0.14232287
255	0xbdd1c311	-0.10242284

fc2.bias f4 [10]
0	0xbd99a59a	-0.07502289
1	0xbdb77a1e	-0.08958839
2	0xbcea1cf0	-0.028578252
3	0x3d4b133a	0.049578883
4	0xbd3e1968	-0.046410948
5	0xbda371e8	-0.0798071
6	0xbca8650c	-0.020555995
7	0xbd92df67	-0.07171517
8	0x3e0e3d19	0.13890494
9	0xbd06b3a5	-0.032886166
